PongAI-main/model/model.pth (torch, 7647 bytes, 4 tensors)

linear1.weight f4 [256, 3]
000000 4d d1 98 3e 13 85 59 3d 39 8d cb 3c bd c6 38 be
       0.29847184 0.053105425 0.024847614 -0.18044563
000010 cf f9 18 3e 65 fc 8a 3e 75 c0 fa 3e a0 a3 f6 3d
       0.14939044 0.27145687 0.48974958 0.12042928
000020 f2 66 d8 3e da ef 4c be 82 9c 8b 3e d4 51 5e 3e
       0.4226604 -0.20013371 0.27267843 0.21710902
000030 6c 04 8f bd a4 a1 21 3e e8 f8 bf 3e 3c d8 5d be
       -0.06983265 0.15784317 0.37494588 -0.21664518
000040 96 0a de be ac 7b 08 bf cc 76 52 be 30 7a 6c 3d
       -0.4336745 -0.5331371 -0.2055313 0.057733715
000050 da 6d 24 be f1 56 49 3e 71 84 3f 3e 51 95 0e bf
       -0.1605753 0.19662072 0.18702866 -0.5569659
000060 71 97 87 3e f4 9b c9 bd 7b 25 d4 3e fe c4 d3 be
       0.26482728 -0.09844199 0.41434845 -0.4136123
000070 6d af 98 be 23 86 e8 be 04 0a 10 3e a1 b2 80 be
       -0.2982134 -0.45414838 0.1406632 -0.25136283
000080 54 c7 fb be cd 5d 1b 3e 80 01 10 bf d2 65 05 3f
       -0.49175513 0.15172501 -0.5625229 0.5210849
000090 b4 32 19 be 39 4d a8 be 97 96 c0 be cf 7b 0b 3f
       -0.14960748 -0.32871416 -0.3761489 0.5448579
0000a0 9a 2e fc be 2b fd 0f be 16 4b 48 3e 20 82 28 be
       -0.49254304 -0.1406142 0.19559893 -0.16455889
0000b0 17 9f de b8 57 e4 0e bf 31 f7 ab 3e bb f2 4e 3e
       -0.00010615418 -0.5581717 0.3358703 0.20209782
0000c0 99 9d 0d 3f 0a 1e 3b be cb 43 0d bf 41 c9 00 3f
       0.553186 -0.18273178 -0.5518157 0.5030709
0000d0 13 95 25 3e e8 a4 cb be b5 6e 7f 3e 7e dd 70 3e
       0.16170149 -0.3977425 0.24944575 0.23521993
0000e0 30 e0 c5 3e 1f 5c 6b 3e dd 6b 06 be 34 34 f1 be
       0.38647604 0.2298436 -0.13127084 -0.4711014
0000f0 7c e0 03 bb 17 e1 d3 be 00 44 53 3e 9a 29 40 3e
       -0.0020122817 -0.41382667 0.20631409 0.1876587
000100 c7 e3 11 3f 48 05 0b 3e fb 52 cd 3e cc ec 38 3e
       0.56988186 0.13576233 0.40102372 0.18059081
000110 41 a0 55 be 44 2d 10 bf e9 06 a4 be 7d 25 9f be
       -0.20861913 -0.5631907 -0.32036522 -0.3108329
000120 3b 2d 44 3e 23 84 94 3e d5 5d 41 bd 21 29 a9 3e
       0.19157879 0.29007062 -0.047208626 0.3303919
000130 5f 92 ee be d8 f5 c9 be a2 f3 3c be 82 f8 0c bf
       -0.46596047 -0.39445376 -0.18452314 -0.5506669
000140 a6 7d 62 be ae 3e eb 3e 4f 64 8a be d4 a8 e7 be
       -0.22118244 0.45946258 -0.27029654 -0.45245993
000150 01 16 9e 3e 7c ec e3 be f1 a8 5c 3e 8a 05 a7 3e
       0.30876163 -0.4451636 0.21548821 0.32621413
000160 e0 00 0c 3f 8a e4 c1 be 76 85 42 be a2 ad dd 3e
       0.54688835 -0.37869674 -0.18996224 0.43296534
000170 e4 5b 6c 3e c7 4d 06 bf a2 38 c1 3e 43 3a 9f 3e
       0.23081928 -0.5246243 0.3773852 0.31099138
000180 bb d2 0b bf b7 23 a7 3e 21 b2 db 3e 96 51 e1 3e
       -0.54618424 0.32644436 0.4290934 0.44007558
000190 ee a2 c4 3e 5f 1d de 3e 35 5b 10 bf c0 94 69 3d
       0.38405555 0.43381783 -0.5638917 0.057026625
0001a0 20 18 96 bd c5 6f 57 3e 66 5a ac bd 56 71 a7 3e
       -0.0732882 0.2103873 -0.0841568 0.32703656
0001b0 b5 99 e9 3e c0 43 a9 3e 98 b3 a7 3e 16 eb fa be
       0.45625082 0.33059502 0.32754207 -0.4900748
0001c0 39 94 f7 3e 50 79 80 3b 26 d4 e4 bd e3 bf e0 be
       0.48355272 0.0039207116 -0.111732766 -0.43896398
0001d0 9c 37 f4 3e 80 57 97 bd 40 0a 58 bd 02 1e 02 bf
       0.47698677 -0.07389736 -0.05274415 -0.5082704
0001e0 f0 fe 05 3f c9 8c 7c be 09 0e 70 3e 9f dc 0e 3f
       0.5234213 -0.2466308 0.23442854 0.5580539
0001f0 f7 15 a0 3d 55 72 d1 be 42 d7 29 bd 4d 1c ed 3d
       0.078166895 -0.4090754 -0.04146505 0.115776636
000200 45 6a fc 3d 82 91 8b be 03 3d d4 3e cd 4d 17 3e
       0.12324957 -0.2725945 0.41452798 0.14775772
000210 10 76 13 be 76 c7 b4 be 60 c3 e1 bc 19 99 e8 3d
       -0.14400506 -0.35308427 -0.027558982 0.11357326
000220 8b c1 41 bd 67 46 13 3f b4 4f 13 bf 00 7b b1 be
       -0.047303718 0.575293 -0.5754349 -0.34664154
000230 e4 18 13 3f a6 8d 90 3d 7e da 51 3e c0 c8 45 3d
       0.57459855 0.07058267 0.20493504 0.048287153
000240 bb dc 0e 3f c6 28 53 3e a1 eb 10 3f 7f 9d 8e 3d
       0.5580556 0.20621023 0.5660954 0.06963634
000250 df cd 4b 3e 3f 93 86 3e 48 e4 8f 3e b8 59 46 be
       0.19902752 0.26284215 0.28103852 -0.19370162
000260 5b 9c dc bc b8 a5 03 3f 0b 1b 0e bf c7 94 d3 3e
       -0.026930025 0.5142474 -0.55510014 0.41324446
000270 00 ef 76 3c d9 3f 00 bf 4d df 9c be 3a ca 94 3e
       0.0150716305 -0.50097424 -0.30639115 0.29060537
000280 a3 47 1b be 26 51 da 3e 22 16 ef 3e 0f 01 8c 3e
       -0.15164046 0.42640036 0.46696573 0.27344558
000290 5c 46 d6 3d 20 77 10 3f 5f 7a 99 3e 53 d2 ba 3d
       0.10462639 0.5643177 0.29976174 0.091221474
0002a0 13 2f 64 3e b8 a1 74 3e 2c c8 cd 3e 90 d1 62 bd
       0.22283582 0.23889816 0.40191782 -0.055375636
0002b0 d7 50 8e be 40 a2 54 bd 30 2c 6f 3d 88 4f db bd
       -0.2779605 -0.051912546 0.05839175 -0.10708529
0002c0 ac bb 7b be 94 d9 c4 be 23 56 02 bf 2c f8 4d be
       -0.2458331 -0.3844725 -0.50912684 -0.20114201
0002d0 f3 e9 a2 3e c6 c6 e0 bc 03 04 36 3d 09 e3 a5 bd
       0.31819114 -0.027438533 0.04443742 -0.08099944
0002e0 26 2b 97 3e 24 28 ed be 8c c9 c6 be 90 b2 9a 3e
       0.29525107 -0.46319687 -0.38825643 0.30214357
0002f0 89 8e 86 bc bd f8 11 3f 43 82 da 3d 07 17 bc bd
       -0.016425388 0.5702017 0.10669377 -0.091840796
000300 9e f5 e9 3e fb 03 93 3e 78 54 29 be f6 45 11 bf
       0.45695204 0.28713974 -0.16536129 -0.56747377
000310 e8 d7 a0 bd 68 99 72 be 2c f0 d0 3d 79 58 c0 3e
       -0.07853681 -0.23691332 0.10202059 0.375675
000320 19 9b e4 be bf 37 46 3e c0 fa 1b 3e 48 18 f5 be
       -0.4464958 0.19357203 0.15232372 -0.47870088
000330 d5 a3 97 be f8 f7 05 bd 68 21 f1 3e 2b 87 f5 3e
       -0.2961718 -0.032707185 0.470958 0.47954687
000340 89 74 5a 3e 3c 8c 0b 3f cf 2c cb be 84 8f fd be
       0.21333517 0.54510856 -0.39682624 -0.49523556
000350 a0 b9 ff 3d e0 ce 8a 3e e0 bf 96 3e 9e 6e e7 be
       0.12486577 0.27110958 0.29443264 -0.45201582
000360 c0 be 80 3d 84 0a af be 3a 68 92 be 28 af c8 bd
       0.06286383 -0.3418771 -0.28595144 -0.097990334
000370 2c 8f 0c bf 3e 81 c3 be dc 7e 0e bf f4 ac f4 bd
       -0.5490596 -0.3818454 -0.5566232 -0.11947051
000380 c8 de ed be 56 8b e1 3e b0 49 41 be a3 45 5b bb
       -0.4645903 0.44051617 -0.18875766 -0.0033458255
000390 3e a0 ec 3e ad 22 3b be f5 e3 bf 3d c8 47 38 be
       0.46216005 -0.18274947 0.09369651 -0.17996132
0003a0 bc 36 03 3f d4 61 16 3e 33 60 28 3d fe aa 9c 3e
       0.51255393 0.14685756 0.041107368 0.30599207
0003b0 b2 6b 8f 3e 54 d7 12 3f 32 cb 1d 3e ad cf e1 3e
       0.28011853 0.57359815 0.15409544 0.44103757
0003c0 df 45 6a 3e b0 76 7a be 51 13 d4 be 0a b5 c7 be
       0.22878216 -0.24459338 -0.41420987 -0.3900531
0003d0 58 b5 7e be d5 4b 0e 3f 1a 60 fb be 80 a4 37 3c
       -0.24873865 0.5558446 -0.49096757 0.011208653
0003e0 04 d5 53 3e 06 11 8e be 08 ea c4 3e 54 07 0d 3f
       0.20686728 -0.27747363 0.38459802 0.55089307
0003f0 d6 56 62 be d2 5d 68 be 30 8d 3c be 52 05 0d 3f
       -0.22103438 -0.2269204 -0.18413234 0.55086243

linear1.bias f4 [256]
000000 11 e2 d4 3d c3 8f 78 3e 17 bf 58 3e ae db b9 3e
       0.10394681 0.2427359 0.21166645 0.36300415
000010 f6 89 45 3e 98 1a f8 bd 2a a6 0b 3f 1f 00 0b 3c
       0.19290909 -0.12114447 0.5455042 0.008483916
000020 6d 86 ea be 0e 98 aa 3e 6c 57 bb be 70 16 e1 3d
       -0.45805684 0.33319134 -0.36590135 0.10990608
000030 00 4a fd 3e 2e 4b a0 3e da 48 66 be 2a 77 dc 3e
       0.4947052 0.31307358 -0.22488728 0.43059665
000040 48 f0 97 be d7 1e 04 bf a2 f9 c5 3e 09 a9 ad be
       -0.29675508 -0.5160956 0.38667017 -0.33918026
000050 2e ba 07 3f 9a d2 37 3c e6 76 b5 3e fa 4e 0a 3f
       0.5301846 0.011219645 0.35442275 0.5402676
000060 c5 e9 8f be 64 d1 11 3d f8 55 e2 3d c5 d2 30 be
       -0.2810804 0.03560008 0.110515535 -0.17267902
000070 69 61 b5 bc 3d 5e 5e 3e 18 e6 85 3e 26 f8 1c be
       -0.022141175 0.21715637 0.2615211 -0.15329036
000080 0d 33 0a bf ce 05 6c bd e2 4d 95 3e aa 7d 13 bf
       -0.5398415 -0.057622723 0.29160982 -0.57613623
000090 73 d8 c4 3e 3d 62 3c 3e 04 f0 82 be 68 93 b5 be
       0.38446388 0.1839685 -0.25573742 -0.35464025
0000a0 c8 b3 f0 3e f8 2c af be a4 3d 9d be 72 18 12 bf
       0.47012162 -0.34213996 -0.3071109 -0.5706855
0000b0 60 36 bb 3c 5e f9 fa be 20 26 1f be 89 15 11 3e
       0.022853076 -0.49018377 -0.15541887 0.14168371
0000c0 41 f1 ec bd 78 70 80 bd ff 49 04 3f aa 66 71 3e
       -0.11569453 -0.06271452 0.5167541 0.2357432
0000d0 c3 8e 0a bf e6 a9 63 3e 98 68 d4 3e 7e 11 89 bc
       -0.5412409 0.2223278 0.4148605 -0.016731974
0000e0 c5 4b 23 be 16 7f bb be 76 3c a2 3e 52 cb f3 be
       -0.15946873 -0.36620396 0.31686753 -0.4761606
0000f0 6d 40 80 3e da fc 0b bf 81 f6 61 be 18 d7 11 bf
       0.25049153 -0.54682696 -0.2206669 -0.5696883
000100 04 21 05 3f 6e 8b 90 3e db 00 f0 bd e3 f4 9b be
       0.520035 0.28231376 -0.11718913 -0.3046027
000110 f5 c9 bc bc 27 c8 e3 be 54 ba db bd 1f 0a df 3e
       -0.02304552 -0.44488642 -0.10728899 0.4356241
000120 05 84 0a bf 20 fe 9a be 44 e2 c9 be 79 28 6e be
       -0.54107696 -0.30272007 -0.3943044 -0.23257627
000130 e3 c4 f5 3e 2a 50 9a be 09 c6 b8 3e 16 c1 90 3e
       0.48001775 -0.30139285 0.3608859 0.28272313
000140 b5 9e 03 be 09 cc 81 3c 0e e3 9d 3e 0d 50 8c be
       -0.1285351 0.015844362 0.3083729 -0.27404824
000150 44 88 f3 be e0 a2 c1 be b8 2f 8d 3d 29 53 71 3e
       -0.475649 -0.37819576 0.06893867 0.2356688
000160 8d 58 83 3e d0 82 e4 be 98 78 11 be 7b 0b f9 be
       0.25653496 -0.44631052 -0.14206159 -0.4864157
000170 98 76 c0 be 8f 0a 2c be 94 de 7c 3d 7e 16 ea 3c
       -0.3759048 -0.16800903 0.061735705 0.028575178
000180 99 0a e1 bd 5a 8b d1 3e 5f f6 9a be ba 38 ff 3e
       -0.109883495 0.4092663 -0.3026609 0.49847966
000190 35 e1 fa 3e 32 d8 21 bd 19 b5 85 bd 4e 6c 12 bf
       0.48999944 -0.03951282 -0.06528682 -0.5719651
0001a0 4d 94 c1 3e 6c 1f 8e bd 21 a7 44 3c 3d 30 09 bf
       0.37808457 -0.06939587 0.012002737 -0.5358923
0001b0 f7 64 da bc b2 16 00 3f 9d b6 66 3e 4c 16 23 3e
       -0.026659472 0.5003463 0.22530599 0.15926474
0001c0 4b cb 10 3f 37 88 b7 3d c8 f6 98 be 78 b5 a5 be
       0.565602 0.08961528 -0.2987578 -0.32365012
0001d0 e4 18 1d 3e 00 8e ad 3a c1 ac 06 bf 01 17 db be
       0.15341526 0.0013241172 -0.5260735 -0.42790988
0001e0 90 db 94 3e b0 e7 9a be 52 15 47 be 22 97 15 3e
       0.29073763 -0.3025489 -0.19441727 0.14608434
0001f0 02 2a d7 be fe f7 8d be 0e ba 06 3f 30 f2 ee be
       -0.42024237 -0.27728266 0.52627647 -0.4666915
000200 43 5e 8d be e6 08 bf 3e 65 91 94 be 70 1b 89 3e
       -0.27610978 0.37311476 -0.29017177 0.26778746
000210 3a 79 50 be 50 bb 1b be 38 59 a7 3e 5c b7 ed 3d
       -0.20358744 -0.15208173 0.32685256 0.11607239
000220 1d 94 91 3e 00 d0 25 be 4f 58 d9 be be 23 ee 3d
       0.28433314 -0.16192627 -0.42450187 0.11627911
000230 13 05 92 be b0 80 fa 3d c6 20 13 3f f4 6f 62 be
       -0.28519496 0.122315764 0.57471883 -0.22113019
000240 74 d5 40 3e b6 ef 48 3e 94 79 a0 3e ba 8b 86 3e
       0.18831426 0.19622692 0.31342757 0.26278478
000250 54 cd aa 3e 85 c9 8b be 55 b4 d3 3e 4a 3f c9 be
       0.33359778 -0.27302185 0.4134852 -0.39306098
000260 3d 9f 33 3e f2 c2 de be 52 65 99 be ef f6 a7 3e
       0.17541213 -0.43508106 -0.29960114 0.32805583
000270 b8 36 47 3e 93 39 0b bf d6 2f 32 bd 9d d1 0b bf
       0.19454467 -0.54384726 -0.04350265 -0.5461672
000280 8c b0 e9 3e b2 1c 6a 3e 96 b1 29 be 3e 7f 0a 3f
       0.45642507 0.22862509 -0.1657165 0.54100406
000290 36 ba a3 3e c0 2e 3a 3e df 55 8c 3e 18 01 14 3f
       0.31978005 0.18181896 0.27409264 0.5781417
0002a0 2e e6 06 3f 31 c1 d8 3d 12 07 a1 bd 07 d8 8a 3e
       0.52694976 0.10583723 -0.07862677 0.2711794
0002b0 00 6c c5 3e 5c f5 d2 3e 69 e5 9f 3d 06 91 aa 3e
       0.3855896 0.4120282 0.078074284 0.3331377
0002c0 b6 af ad be b6 07 9b 3e a0 d0 06 be 2c ce 26 be
       -0.3392312 0.3027932 -0.13165522 -0.16289586
0002d0 c6 16 35 be b4 e8 06 3f 84 69 41 3e 2e 8f 5a 3e
       -0.17684469 0.52698827 0.18887907 0.21343681
0002e0 5a 44 00 3f b0 11 9c 3e e7 52 6f bd 3b c8 0c 3e
       0.50104296 0.30482244 -0.05842867 0.13748257
0002f0 72 b5 25 be f6 ca e3 3e 13 34 85 bd 41 01 26 3e
       -0.16182497 0.44490784 -0.06504073 0.16211416
000300 77 54 11 bf 7c 88 2a be a0 1b 0b bf c5 80 47 3e
       -0.5676951 -0.16653627 -0.5433903 0.19482715
000310 df 0c 32 bd 4b d6 63 be 57 22 ec bd ac f7 b8 be
       -0.043469306 -0.22249715 -0.11529987 -0.3612646
000320 45 2f da bd f8 bf 41 3e 4e e8 ad 3e cc d1 05 be
       -0.10653547 0.18920887 0.33966297 -0.13068312
000330 35 57 0b 3f dc 0a 13 3e 82 35 9a be a2 7d df be
       0.5442994 0.14359611 -0.30118948 -0.43650538
000340 cd b9 08 bf 58 1e d4 3d 17 26 03 3f a2 1d 1e be
       -0.5340851 0.1035735 0.51229995 -0.15440992
000350 ec 16 54 be 2c 09 f3 bd 88 d8 08 bf 41 b5 be 3e
       -0.20711869 -0.11866984 -0.534554 0.3724766
000360 54 ec e3 3e 7e 72 0a 3e 4c a7 01 bd 92 ba d4 3e
       0.44516242 0.13520238 -0.031653687 0.41548592
000370 41 92 63 bd 9d d7 0a bf cb 5e db 3c 25 f9 38 3d
       -0.0555594 -0.5423525 0.0267786 0.045159478
000380 e5 58 00 3e 13 37 10 3f 16 4c 40 3e 1c 89 cf bd
       0.1253391 0.56334037 0.18779024 -0.101335734
000390 b2 89 95 be 3c 4d 08 bf 5e fa e8 be e1 52 ec 3d
       -0.29206616 -0.5324285 -0.45503515 0.115392454
0003a0 3a 55 28 be 94 4e 7c 3e 0c de 36 be c7 c9 20 3e
       -0.16438761 0.2463935 -0.17858142 0.15701972
0003b0 16 5e ab be 04 7e 80 be c7 b9 e8 be fc ab 07 bf
       -0.3347022 -0.25096142 -0.45454237 -0.529968
0003c0 32 f2 99 3e a5 f0 ef be 5d 1e e0 3e 8d 85 41 be
       0.30067593 -0.46863285 0.43773165 -0.18898602
0003d0 a7 e8 c3 3d 40 0b d9 be 8d 61 02 be 4d dd 85 3e
       0.09565859 -0.42391396 -0.12732525 0.26145402
0003e0 9c b2 b5 be 5a 09 12 bf b5 27 13 bf 0e f9 47 be
       -0.3548783 -0.5704552 -0.57482463 -0.195286
0003f0 b4 84 3c be c4 cb 52 3e 39 3a 10 3f a0 e8 0f bf
       -0.18409997 0.20585543 0.5633884 -0.5621433

linear2.weight f4 [2, 256]
000000 75 ae 40 3d 78 b3 e3 bc bb 03 36 3c 81 fd 2d bd
       0.047041375 -0.027795538 0.011109288 -0.04247809
000010 ae 16 60 3d 08 2d 39 bc 4e 76 04 bd 11 8c 23 3d
       0.05470913 -0.01130224 -0.032339387 0.0399285
000020 5d 93 83 bc 04 df 30 3d 3c 15 5f bd 03 e0 95 bb
       -0.01606148 0.043181434 -0.05446361 -0.0045738234
000030 58 fb d8 3c d8 95 ac 3c e2 78 82 3c bb 8e 8b 3c
       0.026487038 0.021067545 0.015926782 0.017035833
000040 b5 c8 6c 3d 09 8f 78 3c e6 03 a6 3c bd 2d f8 bc
       0.057808597 0.015170821 0.02026553 -0.030295247
000050 74 71 3f bc 03 ff 67 bc ce 4a 4e bc 4c 6c a9 bc
       -0.011684764 -0.014159921 -0.012591077 -0.020681523
000060 8d 53 36 3c 99 bf 42 bb 60 1b 87 3c ce f9 0f 3d
       0.0111283185 -0.0029716252 0.016492546 0.03515034
000070 7e d9 b8 bc d2 89 3d 3d 13 fe 53 3c 77 c9 0b 3d
       -0.022564646 0.046274014 0.012938994 0.03412768
000080 70 85 3b bd 51 de 34 bd 5c 3f 4e 3d 3c 9a 96 bc
       -0.045781553 -0.04415733 0.050353393 -0.018384092
000090 bc a0 f8 bc 09 a2 4f bd 92 dc 63 bd 00 4d 83 3c
       -0.030350082 -0.05069164 -0.055630274 0.016027927
0000a0 50 0b a3 3c f2 29 3a bb 27 c9 e9 3c 10 ac 40 3d
       0.019902855 -0.002840635 0.0285383 0.04703909
0000b0 c4 af b4 3c 61 1f 5f bc f4 4d 26 bb b5 68 9f 3c
       0.022056468 -0.013618321 -0.0025376054 0.019459108
0000c0 f0 86 a6 3b d5 70 dc bb e9 b6 69 3d 39 a9 05 bd
       0.005082004 -0.006727318 0.057059202 -0.032632086
0000d0 fc 95 c2 bc 67 c1 71 bd d8 24 1a 3b 94 85 78 3d
       -0.023753159 -0.059022333 0.0023520496 0.060674265
0000e0 3f 49 12 3d 00 50 a9 bb 48 e8 01 bd 9e 71 45 bd
       0.035714384 -0.0051670074 -0.03171566 -0.048204057
0000f0 76 9c d9 bc f1 1e 65 3d ae 58 70 bd 9a ff 5b bc
       -0.026563864 0.05593771 -0.05867832 -0.013427639
000100 06 b6 53 bc 84 9c 00 3d 39 4e 24 bd 67 2c d5 bc
       -0.012921816 0.031399265 -0.04011366 -0.02602215
000110 d4 4c 7b bc e4 7c eb bb 14 17 90 bc 72 bc da 3c
       -0.0153381415 -0.007186519 -0.01758913 0.026701186
000120 5c e5 86 3c 52 27 1a 3d ce 03 33 3d 77 dc 58 bc
       0.016466789 0.037635155 0.0437048 -0.013236157
000130 29 8f c8 bc 68 3d 6d 3d 3e a1 e2 bb ee 6d 16 bc
       -0.024482327 0.05791989 -0.006916194 -0.009181483
000140 91 1a 18 bd 6b 38 dd 3b 00 60 19 37 f6 6c 47 bd
       -0.03713471 0.0067511103 9.141862e-06 -0.048687898
000150 aa 0f 2a 3d 7b 7b 9f bb 50 2a 31 3d 90 78 04 bd
       0.041518845 -0.004867015 0.043253243 -0.03234154
000160 47 80 78 3c 85 d1 de 3b a3 d5 73 bd a0 c3 20 3d
       0.015167302 0.006799879 -0.05952991 0.039249063
000170 4d 3e a5 ba 06 1c d4 3c 45 9e a6 bc 50 4f 33 bd
       -0.0012607068 0.025892269 -0.02033914 -0.04377681
000180 94 5a 84 bc 0c f4 0a 3d 74 89 62 bd 36 26 65 3d
       -0.016156472 0.033924147 -0.055306867 0.055944644
000190 86 13 14 3d 0e 5c 4e 3d 56 e0 03 3d 38 be a3 bc
       0.03615143 0.05038076 0.032196365 -0.019988164
0001a0 5b 8f 1c bd f3 87 32 3d 4b ae bc bc 84 bd a4 3c
       -0.038222652 0.043586683 -0.023032328 0.0201099
0001b0 f7 45 70 bc e2 9d 62 3d a6 e7 e0 bb 30 d5 af bc
       -0.014665118 0.05532635 -0.006863552 -0.02146396
0001c0 03 df 0e 3d c1 33 dc 3c d0 9b 00 bc 5a 60 4e bd
       0.03488065 0.026880147 -0.007849649 -0.050384857
0001d0 78 b7 28 3c e0 2d 0b 3d b0 32 48 3d 80 cb 5d 3c
       0.010297649 0.033979297 0.048876464 0.013537288
0001e0 59 ff 51 3c b7 0a 20 3d ee 12 00 bd a8 fc 20 bc
       0.012817227 0.03907272 -0.031268053 -0.009825863
0001f0 4e 4e 5a bd 3c d6 df 3c 5a 14 63 bd d3 23 a5 bb
       -0.053297333 0.027323835 -0.05543933 -0.005039671
000200 b7 ec f8 bc 60 05 27 bc 52 64 77 bd f8 3c 44 3d
       -0.030386312 -0.010194153 -0.060398407 0.047909707
000210 76 93 69 3d b0 b6 90 3b 29 6e eb 3c 9c 58 fc bc
       0.057025395 0.0044163093 0.028739052 -0.030803971
000220 52 92 2f 3d 18 76 39 bc 60 eb 59 3b 57 07 76 3d
       0.04286415 -0.01131966 0.0033251867 0.060065594
000230 7a 72 21 bd a9 ab 71 bc 0d ea 22 3d ba 59 48 3d
       -0.039415814 -0.0147504 0.03977399 0.048913695
000240 d0 ef d0 3b ae f0 ff 3c b9 cc 3a bd ca 9e 16 bd
       0.006376244 0.031242695 -0.045605395 -0.036772527
000250 24 ad 70 bd a7 24 1f bd 7b 3a 7c bd 30 f2 78 bb
       -0.05875887 -0.038853314 -0.06157921 -0.0037986152
000260 81 5d 17 3d 76 de c4 3c cf ad 73 bd 9c 9c f0 bc
       0.036954407 0.024031859 -0.05949193 -0.029371552
000270 57 a8 d4 3c 44 69 9a 3c 27 90 83 3c 9d 60 55 bb
       0.025959177 0.018849023 0.016059948 -0.0032558807
000280 7c 98 62 bd e0 be 7d bc dd f3 1a 3c d0 18 27 3d
       -0.0553212 -0.015487403 0.009457556 0.040795147
000290 c0 cb 98 bc 00 30 57 b9 91 01 c4 3c cf 12 24 3d
       -0.018651843 -0.00020521879 0.023926528 0.040057
0002a0 d0 3c 07 3d 90 7c 0c 3d 24 19 63 bd 67 f2 3f 3d
       0.03301698 0.03429848 -0.055443898 0.046862032
0002b0 e8 a1 7d bd 37 05 0c bd 20 b9 68 3c e5 83 06 3c
       -0.061921984 -0.03418466 0.0142042935 0.008210157
0002c0 ac 12 4d 3d 65 df 94 3c a0 3d 65 3d bb 8b 1a bc
       0.050066635 0.018172929 0.055966973 -0.009432728
0002d0 1c bb 99 3c 16 50 99 3c 89 02 29 b8 eb d1 19 bd
       0.018765979 0.018714946 -4.02951e-05 -0.03755371
0002e0 a0 9b 1b bd 0b 26 4a bd ad f1 30 bd e4 51 9f 3c
       -0.037990212 -0.049352687 -0.04319923 0.019448228
0002f0 8e 37 c0 3b fb 49 20 3d 12 54 be 3b 28 dc 2a bc
       0.0058659976 0.039133053 0.005808362 -0.010428466
000300 3e e1 7c bc c0 cb b4 3b fa 07 9b 39 bb f8 fa bb
       -0.015434561 0.005517453 0.00029569847 -0.0076590455
000310 46 c0 bd bc 59 f1 5e 3c ba 6e 40 bc bc 45 e7 3c
       -0.023162972 0.013607346 -0.011745149 0.028231494
000320 43 c3 28 bc a0 05 4f bb 9a b6 b1 bc 38 65 0a bc
       -0.01030046 -0.0031589046 -0.021693517 -0.008446984
000330 9e bf 34 bd d4 38 5d 3d 5d 17 04 3d 24 bc 55 3d
       -0.044128053 0.054009274 0.032248843 0.052181378
000340 fc b6 b0 3c 6a 93 1b 3d f9 a4 69 bd 80 b9 50 3d
       0.021571629 0.037982382 -0.057042096 0.050958157
000350 64 52 f5 3c 30 05 d9 bc 79 8a 2f bd e7 94 30 3c
       0.029946513 -0.026491731 -0.042856667 0.010777689
000360 4c 5c 4d bd 09 c1 b9 bc 8d b9 d3 bc dc cd 44 3d
       -0.05013685 -0.022675054 -0.025845313 0.048047885
000370 89 85 27 bd 56 d2 16 bd 93 07 47 3d 9e 84 d0 bc
       -0.040898833 -0.036821686 0.048591208 -0.025453862
000380 88 37 0b 3c 4e b3 6d bb e2 1c 2f 3d 6c 8e 4e 3d
       0.008497126 -0.0036270204 0.042752154 0.050428793
000390 06 1d 23 bd 00 df ab bb 80 6f 71 ba e1 b4 43 3d
       -0.0398226 -0.0052450895 -0.0009210035 0.04777992
0003a0 c7 b3 5e 3d ac e7 a3 3c aa da f6 bc e8 70 a7 3a
       0.054370668 0.02000793 -0.030133564 0.0012774738
0003b0 48 22 8e bc d0 12 a0 bb b0 a8 e5 bc f8 a4 13 bc
       -0.017350331 -0.004885055 -0.028034538 -0.0090115
0003c0 4a 00 b9 3c 36 cf 80 bd f4 6d c3 3c 8f 00 04 3b
       0.022583146 -0.06289522 0.02385614 0.0020141935
0003d0 17 d5 a9 3c 66 6e cc bb 5c 98 4f bd c4 4e 08 3d
       0.020731492 -0.0062387465 -0.05068241 0.03327824
0003e0 ab 17 14 3d 17 33 cc ba 04 bf 1f bd d4 59 b7 3c
       0.036155384 -0.0015579191 -0.039000526 0.0223817
0003f0 16 6e 9b 3b 55 07 79 bd 6f 64 f1 bc 64 f7 06 bd
       0.004743348 -0.060798008 -0.029466836 -0.032950774

linear2.bias f4 [2]
000000 55 20 51 3d 03 5e ef 3b
       0.051056225 0.0073049082
